HouseWeights.pt (torch, 203616 bytes, 19 tensors)

embeds.0.weight f4 [77, 39]
000000 7e d8 43 3e 89 3d 56 3e c4 87 68 bf 65 93 9d bf
       0.19125554 0.20921911 -0.9083216 -1.2310606
000010 e1 07 c8 3e 15 e9 4a 3f b6 25 53 bf a3 88 b7 3f
       0.3906851 0.79261905 -0.8247942 1.4338573
000020 6c 6f a5 3c f5 30 04 bf 62 60 2a c0 f3 6c 3e 3e
       0.020194732 -0.516372 -2.6621327 0.18596248
000030 95 2e 12 3f b9 67 8b be d2 cb a8 bf e3 1e 81 be
       0.5710233 -0.27227572 -1.3187201 -0.25218877
000040 77 ee c0 3e 98 6e 2c 3e 2f cf d4 bf 2b b5 e0 3d
       0.37681934 0.16839063 -1.6625727 0.10972055
000050 1d 9d a0 3f 39 7a f9 bc 41 51 5c be c4 58 12 c0
       1.2547947 -0.030453788 -0.21515371 -2.2866678
000060 88 f2 fd 3d 99 a4 fc bd 1c d9 53 bf ec 01 ac bf
       0.12399775 -0.12336082 -0.8275316 -1.3438087
000070 9e 3f 8d bf 86 4a 27 3f f4 ac 98 be 6a 24 fc bf
       -1.103504 0.6534809 -0.29819453 -1.9698613
000080 62 d5 98 bf b4 89 71 bf 98 50 5b 3f 79 d4 5f 3e
       -1.1940119 -0.94350743 0.8566985 0.21858396
000090 be 38 07 bf 9e fc ee 3d 54 4e 62 3f d2 dc 7d 3f
       -0.52820957 0.11669277 0.8840077 0.9916507
0000a0 b1 45 62 bf 3e 5b 3d 3f ce 37 9d 3f 23 02 59 bf
       -0.8838759 0.7396735 1.2282655 -0.84768885
0000b0 44 7e cf be bc a5 3d 3e bf 0b e6 3b aa 79 54 3e
       -0.4052602 0.18520254 0.007020443 0.20749536
0000c0 28 95 d1 3f 7a da 28 3e bc d4 a2 bf c2 b5 0e 3f
       1.6373644 0.16489592 -1.2721171 0.5574609
0000d0 9e 14 df be a6 99 2a be 03 36 84 bf 03 0d 8f be
       -0.43570417 -0.16660175 -1.0328983 -0.27939615
0000e0 86 fa 2c 3f 9e 03 64 bf 2f 7a e6 3d a2 e4 e4 be
       0.6756977 -0.8906802 0.112537734 -0.44705683
0000f0 f6 93 6a 3e 5c 13 bf bf ba 4f 3e 3e b3 1d d5 3e
       0.22908005 -1.4927783 0.18585101 0.4162422
000100 58 04 96 be ca da a3 bf 14 83 8b be 5e f8 8b bf
       -0.2930019 -1.2801144 -0.27248442 -1.0935171
000110 61 85 ea bf 03 6c 3e 3e e2 70 96 3e 8b f8 6d 3e
       -1.8321954 0.1859589 0.29382998 0.23239343
000120 05 4f 14 3f dd a1 7e be 79 c8 b6 3e b9 93 91 bf
       0.57933074 -0.24866433 0.35699823 -1.1373206
000130 56 e1 20 bf d4 3c c1 3e 09 5d 9a bf 9d 34 19 be
       -0.62843835 0.3774172 -1.2059642 -0.14961477
000140 3b 75 0a 3f 5d 07 06 bf e7 3d 29 40 cf 63 3e bf
       0.5408513 -0.52354985 2.6444032 -0.74371046
000150 bd 17 33 bf e5 f6 8d bf ce a9 fd be ca 8a a2 3f
       -0.69958097 -1.1090971 -0.49543613 1.2698605
000160 a7 17 ed 3d c4 dd 86 bf aa bb a9 3f f2 92 0c 40
       0.11576777 -1.0536427 1.3260396 2.1964688
000170 1c f9 a4 bf 84 52 17 bf c3 7c 36 3f 62 f8 1a bf
       -1.2888522 -0.59110284 0.7128412 -0.6053525
000180 bd d8 b2 bf a0 e6 41 bf 5b 3b d1 bf 3f d1 f2 bf
       -1.3972393 -0.7574253 -1.6346239 -1.8970107
000190 15 f9 02 bf 03 d1 fb be d0 61 98 bf a1 4e 9c 3f
       -0.5116132 -0.491829 -1.190485 1.2211496
0001a0 77 dc 1a be db 60 a2 bf e5 5c e2 bf 9a 28 ba bf
       -0.15123163 -1.2685808 -1.7684599 -1.4543641
0001b0 7b d0 00 bf 36 78 08 c0 04 4f ce bf 30 61 08 c0
       -0.50318116 -2.132337 -1.6117864 -2.1309319
0001c0 c5 e1 e1 be 20 5e 05 40 c9 3b 0f c0 96 94 9a 3f
       -0.4411756 2.08387 -2.238024 1.2076595
0001d0 86 da 4c bf ef 59 03 bf 50 4c c9 bf fd d5 21 3d
       -0.8002094 -0.513091 -1.5726414 0.039510716
0001e0 ce f9 5b 3f d8 d6 e4 3e c1 17 4a bf 95 ba f1 be
       0.85928047 0.44695163 -0.78942496 -0.47212663
0001f0 4c 2e 38 bf 92 9d 3d 3d 72 02 1a 40 1c 43 a3 bf
       -0.71945643 0.04629285 2.4063993 -1.2754855
000200 5c 86 4c bf 51 a3 e0 3e ad 12 af 3f 54 7d 6d be
       -0.79892516 0.438746 1.3677574 -0.2319234
000210 fa 7d bb 3e 74 60 eb 3d 57 53 ec 3e 14 76 20 3f
       0.3661955 0.11493006 0.46157333 0.6268017
000220 a3 79 5e bf 43 91 8a bf f1 69 25 bf 36 63 04 c0
       -0.8690435 -1.082558 -0.6461478 -2.0685554
000230 b7 80 37 bf 47 4e 6e 3d b7 48 2e 3e 0e 46 bc 3f
       -0.7168078 0.05818012 0.17019926 1.4708879
000240 f7 d4 ec be 60 4e 3d 3d 68 94 79 bf ad b6 22 bf
       -0.4625623 0.046217322 -0.97492075 -0.6355999
000250 77 16 e7 be 7e 00 9c 3e 98 c5 bd bc ef 4b d1 be
       -0.45134327 0.30469126 -0.02316551 -0.40878245
000260 72 47 ed 3e 0f 62 5b bf 6b a7 12 bf 1d 3e 94 be
       0.4634357 -0.856965 -0.5728671 -0.2895364
000270 d4 bd 40 bf b8 d4 fc be b6 b2 9e 3e 87 b2 82 bf
       -0.75289655 -0.49381042 0.3099572 -1.0210732
000280 96 01 e8 3f 1a 8a c7 3e 05 f6 af bd 1e 03 82 3e
       1.8125484 0.3897255 -0.085918464 0.25393003
000290 4b cd a4 3e c0 1c de 3e bb d1 a0 bf 71 96 11 3f
       0.32187876 0.4338131 -1.2564005 0.5687018
0002a0 c8 c2 96 be 51 8f 4f 3e ae 49 90 bd f3 35 ea bf
       -0.2944548 0.20269515 -0.07045303 -1.8297714
0002b0 3e 64 70 bd ce 25 a8 be 4d 91 26 bf 14 c6 a8 be
       -0.05868935 -0.32841343 -0.6506546 -0.32963622
0002c0 42 e0 39 3f f1 ba d2 be 20 1b 63 be ec ae 21 bf
       0.72607815 -0.4115825 -0.22178316 -0.63157535
0002d0 28 20 cd be e0 7c 7e 3f 0c 21 4d be e5 bf 09 c0
       -0.40063596 0.99409294 -0.20032138 -2.1523373
0002e0 e4 40 bf bf d6 f2 eb be e9 85 55 bf 12 14 ab be
       -1.4941678 -0.46083707 -0.83407456 -0.3341375
0002f0 8d 97 00 3f ad 58 df bf 30 58 6c bf dc e9 f2 3e
       0.5023125 -1.7448937 -0.92322063 0.47444046
000300 f6 cc a9 be 54 75 45 3f 23 67 28 bd 7a 24 d8 3d
       -0.33164185 0.77132154 -0.041113984 0.10553832
000310 50 ef 5f 3f 0c c7 c9 bd 57 b2 e6 3f fe 6a 85 bf
       0.87474537 -0.09852418 1.8023175 -1.0423276
000320 5a 15 89 bf 8d 00 73 3f 10 95 e9 3f fd f6 b3 3e
       -1.0709641 0.94922715 1.8248615 0.35149375
000330 7a 5b fd be 8e e1 39 bf b3 d1 c3 bd b1 e5 3f bd
       -0.49483854 -0.72609794 -0.09561481 -0.04684991
000340 f1 ad 8f be 47 e9 3c bf f3 02 81 3f 70 af 8b 3f
       -0.28062394 -0.7379345 1.0079025 1.0912914
000350 22 01 62 3e ff 97 2c 3f 0b cf 46 be 2e de 0e c0
       0.22070745 0.6741943 -0.19414918 -2.2323108
000360 4a 22 18 3e 04 8f a3 bd aa ec 6b 3f 04 c4 ae 3f
       0.1485683 -0.079862624 0.92157996 1.3653569
000370 66 22 8c be d5 94 34 bf cd b5 46 be 50 b5 89 3f
       -0.27369994 -0.705396 -0.19405289 1.0758457
000380 db ed e1 bf 89 64 54 3e 77 2d a2 bd 12 fb 17 be
       -1.7650713 0.20741476 -0.07918828 -0.1484187
000390 16 13 13 3f d0 5b 38 3e cd 58 13 bf b1 d6 4b 3d
       0.57451 0.18003774 -0.57557374 0.049765293
0003a0 08 b6 d1 be 73 6c 67 3e 00 95 a6 3f 9a 79 90 be
       -0.4095919 0.22599964 1.3014221 -0.28217775
0003b0 6d 24 11 bf 0a 25 af bd 47 11 13 be 5f 29 eb be
       -0.56696206 -0.085519865 -0.1436206 -0.4593
0003c0 15 a0 e1 3c 84 08 2a 3f d2 9c 8e 3d 18 dd bc bf
       0.027542153 0.66419244 0.06963505 -1.4754972
0003d0 6a 7e 7c bb cb ff 94 3d 6d 0c b0 3e 68 96 05 be
       -0.0038527497 0.07275351 0.3438448 -0.13045657
0003e0 ee d0 aa 3d bf 16 bd be 24 ce 85 bf 89 c6 1f 3e
       0.083406314 -0.36931416 -1.0453534 0.15603079
0003f0 12 32 63 bf 6a e2 ba bc 61 0e d3 3f 1e b4 54 bc
       -0.88748276 -0.02281304 1.6488763 -0.012982396

embeds.1.weight f4 [9, 5]
000000 11 ba 2a bf 82 c2 70 3f 1a 1f ae 3f 2e 05 0f bf
       -0.66690165 0.94046795 1.3603241 -0.5586728
000010 cb 78 4e 3f 11 f4 70 3d 90 13 19 c0 d1 5f 04 c0
       0.80653065 0.05882651 -2.391819 -2.0683482
000020 ce 69 fa be 0b 06 dc bf 5f 31 11 bd 00 1f 12 3f
       -0.48908848 -1.7189344 -0.035447475 0.5707855
000030 7a 6c b7 bf 9f 43 35 bf dd c9 c2 bf ca 78 91 bf
       -1.432998 -0.70806307 -1.5217854 -1.1364987
000040 9d f1 af bf db 2e bf bd d5 dc 3b c0 9c ef 4a be
       -1.374561 -0.09335109 -2.9353535 -0.19817966
000050 b9 61 f6 3f 86 86 91 3d be a3 02 3e f7 54 a7 3d
       1.9248573 0.071057364 0.12757775 0.08170503
000060 f9 dc db 3d 32 62 98 be 30 fc b1 3f 51 60 54 3f
       0.107355066 -0.29762417 1.3905087 0.8295947
000070 f7 3c e9 3e 61 05 02 3f de a4 11 bf 02 f4 a1 bf
       0.45554325 0.5078946 -0.5689219 -1.265259
000080 25 4c b1 3c 65 15 c4 3e 77 b4 c1 3f 8d 87 71 bf
       0.021642754 0.38297573 1.5133198 -0.9434746
000090 e3 ca a2 be ff b1 d7 bf ca 35 c0 3f 43 48 51 c0
       -0.31795415 -1.6851195 1.5016415 -3.2700355
0000a0 fc d7 ea 3e 98 a1 62 bf 44 2d 9d 3f 78 5f c5 bf
       0.45867908 -0.8852782 1.2279439 -1.541976
0000b0 0a 04 4f 3f
       0.8086554

embeds.2.weight f4 [6, 3]
000000 c9 98 f0 3f 1a 7f db 3f cc 88 36 be e3 06 82 bf
       1.8796626 1.7148163 -0.17825621 -1.0158352
000010 ca 11 7d 3e a2 3a 4d 3a 1c 25 bc 3d 10 02 7b bf
       0.24713817 0.00078288664 0.091867656 -0.9805002
000020 38 a5 00 c0 58 ca 05 40 a7 aa d5 3f 9c a0 05 bf
       -2.0100842 2.090475 1.6692704 -0.52198195
000030 71 76 c9 bf 17 b5 56 3f 08 e7 1d 3e 39 06 04 be
       -1.573927 0.8387007 0.15420163 -0.12892999
000040 72 93 af bf 11 67 f4 3e
       -1.3716872 0.47734883

embeds.3.weight f4 [9, 5]
000000 47 33 2e 3e 93 49 92 bf 1a 00 d3 3e 5b e3 63 3f
       0.17011748 -1.1428703 0.41211015 0.8901879
000010 7f 3b 6c be 33 c8 08 40 23 25 bc 3f ee df 69 3f
       -0.23069571 2.1372192 1.4698833 0.91357315
000020 87 fb 41 3f f7 5e d5 3f 68 f4 1e be dc 96 25 ba
       0.75774425 1.6669606 -0.15522921 -0.000631673
000030 f4 3c 7d bf e3 4b 40 bf 10 94 c7 3d 9e b1 7d 3e
       -0.9892113 -0.75115794 0.097450376 0.24774787
000040 ca 15 34 be d2 60 d7 3f ca af ac 3e 7c 28 83 be
       -0.17586437 1.6826422 0.33727866 -0.25616825
000050 e5 06 a8 3d 63 e3 8c bf b3 1a 1c 3e f4 a7 a1 3f
       0.0820444 -1.1006893 0.1524456 1.262938
000060 b9 71 23 bf 58 03 84 bf 04 02 12 3f d6 ce b6 3e
       -0.638454 -1.031352 0.57034326 0.35704678
000070 9c 77 e3 3f 8d 90 e5 3b 4c ee 07 bf 01 76 1f 3f
       1.7770877 0.007005757 -0.5309799 0.62289435
000080 ea cc 3c be 47 f8 22 be 29 d9 21 be 3f e3 ae 3f
       -0.18437544 -0.15915023 -0.15805496 1.36631
000090 dc 4b 2b 40 d5 25 7e 3f 90 0a 6a 3e 06 5f 78 3f
       2.676505 0.9927648 0.22855592 0.97019994
0000a0 c3 05 20 40 2a a4 d6 bd 47 6d 84 bf c1 eb f3 3f
       2.5003517 -0.104805306 -1.0345849 1.9056321
0000b0 54 02 e8 bc
       -0.028321423

embeds.4.weight f4 [85, 43]
000000 12 03 85 bf f6 7f 37 be 0a b6 b9 3e 06 2a 8c 3f
       -1.0391562 -0.17919907 0.36271697 1.0950325
000010 6f e9 1e c0 62 2e e0 be 1b 13 b0 be c2 56 08 c0
       -2.4829977 -0.43785387 -0.34389576 -2.1302953
000020 b0 09 1a 3f e0 44 f7 3f e4 63 97 bf ea 4a 71 bf
       0.6017103 1.9317894 -1.1827359 -0.94254935
000030 12 e7 b1 bf eb 43 a7 3f 48 4a 34 bf be ed d1 3e
       -1.3898642 1.3067602 -0.70425844 0.41001695
000040 b6 51 ff 3e 29 09 86 3e 82 69 c5 be 81 65 bc 3f
       0.49867028 0.26178864 -0.3855706 1.4718477
000050 97 68 03 bf 6f bc f2 bf 8e d0 83 bf e9 b6 33 3f
       -0.51331466 -1.8963755 -1.0298021 0.70200974
000060 9b 48 36 bf dc 8a 81 3f 90 13 02 3e b5 ee a9 bf
       -0.7120454 1.0120502 0.12702775 -1.3275973
000070 d2 1f 92 3f 73 4a 95 be 8b 4a 54 be e6 4a b4 bf
       1.1415961 -0.29158363 -0.20731561 -1.4085357
000080 3d f8 af bf cd 82 7c bf e9 cb 0f bf 63 39 1b 3d
       -1.3747631 -0.98637086 -0.5617052 0.037896525
000090 65 7b b4 3f 3f da 25 bf db aa d5 bf 4e 3e 31 bf
       1.4100157 -0.6478614 -1.6692766 -0.69235694
0000a0 ae 5d c2 3d 58 23 a1 3e 22 4f a0 bf 89 55 cc bf
       0.09490524 0.31472278 -1.252415 -1.5963603
0000b0 ac 99 99 3e 0a c5 28 3e 5b 9e 7e 3f 94 e7 46 bf
       0.30000055 0.16481414 0.9946038 -0.7769711
0000c0 89 b0 9d bf 31 8d a4 bf 54 c3 a1 bf b3 28 51 bf
       -1.2319499 -1.2855588 -1.2637734 -0.8170273
0000d0 40 6e 39 3f bf 4a ff 3d 85 7a 70 3f c3 cd 14 c0
       0.72433853 0.124654286 0.9393695 -2.3250587
0000e0 7c 0b b0 bd a2 8f bc bf a0 bc 2a 3f c6 cc 68 3f
       -0.085959405 -1.4731333 0.6669407 0.9093746
0000f0 e1 45 fc be 6c 95 9f 3f ec 08 20 3f 45 ec 17 c0
       -0.49272063 1.2467475 0.62513614 -2.3737957
000100 94 b9 98 bf 8e a1 d8 be 87 25 1a 40 1c e7 be bf
       -1.1931634 -0.42310756 2.4085405 -1.4914279
000110 47 e2 61 3e 2b 94 4c 3e bc e3 1e c0 d4 3f 11 3e
       0.22058974 0.19978397 -2.4826498 0.14184505
000120 d1 0f 8b 3c 23 6a e0 bf 88 74 bf bf 48 46 ed 3e
       0.016975315 -1.753239 -1.4957438 0.46342683
000130 26 51 b2 be 95 20 bd be 11 c2 21 c0 b8 c4 61 3f
       -0.34827536 -0.3693892 -2.5274699 0.88190794
000140 57 26 9a bf d0 58 81 be 2b eb d0 bf bf fa 43 3e
       -1.204295 -0.2526307 -1.6321768 0.19138621
000150 f5 51 70 3f d4 e7 bd be a6 d3 eb bf e8 24 6a bf
       0.93875057 -0.37090933 -1.8423965 -0.91462564
000160 8b 49 04 bf 27 36 04 40 ee 78 ad be 91 94 45 c0
       -0.5167472 2.0658052 -0.33881325 -3.0871928
000170 2a a3 da 3f bd 23 2f c0 32 c6 e0 be b7 70 f2 3f
       1.7081044 -2.7365563 -0.4390121 1.8940648
000180 17 b4 dd 3e d3 4a 3a 40 a4 4a 67 3f bb d4 19 40
       0.4330146 2.910817 0.9034827 2.403609
000190 61 8a 65 be 8a 43 2e 3f 3a 29 84 3f e4 ae e6 bf
       -0.22416069 0.68071806 1.0325081 -1.8022122
0001a0 3c 8e 05 be a8 85 49 3f 3d a2 ff bf 44 6a 18 c0
       -0.1304254 0.7871957 -1.9971386 -2.381486
0001b0 81 df 00 40 49 be f1 3e db f4 0f c0 fb f2 3b bf
       2.0136416 0.4721549 -2.2493198 -0.73417634
0001c0 78 af 0f 3f d4 16 47 c0 4e e1 b4 3f ed 06 ae bf
       0.5612712 -3.1107683 1.4131258 -1.3595864
0001d0 49 76 45 bd 19 16 7f 3e 72 1b 04 c0 d3 70 e8 bf
       -0.04820851 0.24910773 -2.0641751 -1.8159431
0001e0 5d 05 aa bf 29 53 a5 3f 52 75 fa be 39 89 5e c0
       -1.3282887 1.2916003 -0.48917633 -3.4771254
0001f0 0e 0e 0c c0 88 66 01 40 98 37 ea be 44 19 51 40
       -2.1883578 2.021883 -0.4574554 3.267167
000200 98 a5 12 3f c8 03 97 be 40 d0 21 3e cd 53 90 bf
       0.57283926 -0.29495072 0.15802097 -1.1275574
000210 56 3a 32 3f 7c 97 8c bf 70 b4 e1 bf a4 98 8a 3f
       0.69620264 -1.0983729 -1.763319 1.0827832
000220 4f 65 11 c0 7a 26 a4 3f 2b 23 ed 3f c9 02 c8 bf
       -2.2718084 1.2824242 1.8526357 -1.562585
000230 ef f7 6b 3e f8 a0 18 40 e7 8f e8 3f a2 01 82 bf
       0.23043798 2.3848248 1.8168916 -1.0156748
000240 62 4d d8 3e 33 f9 54 3f 5d 51 d8 bf 98 e3 75 3e
       0.42246538 0.8319275 -1.689983 0.24012601
000250 18 c6 25 3d 57 b1 4b bf c4 0e cb bf 7a cf a5 be
       0.04047212 -0.79567474 -1.5863881 -0.32384855
000260 1d 50 81 3f ce ef 17 bf 03 25 7e 3f c8 fe e4 3d
       1.0102574 -0.5935029 0.99275225 0.11181408
000270 47 76 ef be 71 4c a3 3f bc 2b 53 bf 6d aa 07 3f
       -0.46769926 1.2757703 -0.8248861 0.52994424
000280 9b bd 09 c0 d4 66 4c bf bc ab 08 bf d8 93 34 3e
       -2.1521976 -0.79844403 -0.53387046 0.17634523
000290 aa 27 58 be 1c 40 c8 3f 43 41 56 bf 1c 67 e0 bf
       -0.2110888 1.5644565 -0.8369333 -1.7531466
0002a0 81 33 35 bf 1f 03 e0 be fd 6b 50 3f ad 23 a0 bf
       -0.70781714 -0.4375238 0.8141478 -1.2510887
0002b0 0a 82 7a bf 35 a6 a5 3f b6 bc 97 be 75 df 4d bd
       -0.97854674 1.2941347 -0.29636163 -0.050261933
0002c0 db 7b 87 bf ef a6 a7 bf ae 4b 15 bf df ff 10 c0
       -1.0584673 -1.3097819 -0.58318603 -2.2656171
0002d0 e1 36 93 3e 79 78 3e bf 0b 3f 5e bf 83 ca 37 be
       0.28752807 -0.74402577 -0.86814946 -0.17948346
0002e0 7f 08 d8 be fc c6 ba 3e 10 1f 0e bd 6d dd a1 bf
       -0.42193982 0.36479938 -0.034697592 -1.2645699
0002f0 5f ef 5d 3f 0b 8b d5 3e 5e 66 43 40 93 01 d5 be
       0.86693376 0.41707644 3.053123 -0.41602764
000300 26 0a 27 3f d9 56 42 bf 42 1b b4 be c6 26 47 3f
       0.6524986 -0.7591377 -0.35177046 0.7779354
000310 50 ce 95 3f 12 57 9c 3e 23 eb 8e be 27 42 00 c0
       1.1703587 0.3053518 -0.2791377 -2.0040376
000320 6c c8 6b be fc 14 33 be 01 57 cd be 37 31 92 bf
       -0.23025674 -0.17488474 -0.4010544 -1.1421269
000330 1c 4b 55 3e f6 07 9f 3e a9 35 8c 3e f9 40 c2 bd
       0.20829433 0.3106076 0.2738469 -0.09485049
000340 27 a8 f7 be 09 b4 81 bf a0 e6 2c be 0f d6 61 3f
       -0.48370478 -1.0133067 -0.16884851 0.8821725
000350 05 c7 24 3f c4 d8 93 3e f8 d0 15 bf 9b cc 4f c0
       0.6436618 0.28876317 -0.58521986 -3.2468631
000360 5f a7 ee bf 01 05 89 3f 7c e6 35 40 84 d1 77 bf
       -1.8644828 1.0704652 2.8421926 -0.9680407
000370 85 4f 60 c0 85 da 47 c0 03 ee 79 bf 54 33 31 3f
       -3.5048535 -3.1227124 -0.976288 0.69218946
000380 15 03 18 40 7b 00 ab be cd 3e ed 3d 25 8f 1a 40
       2.375188 -0.33398804 0.11584244 2.4149868
000390 e5 e7 43 40 d2 45 59 bf 8d fa 22 bf 17 29 65 3f
       3.0610287 -0.8487216 -0.6366356 0.89515823
0003a0 e4 75 19 bf 7d b1 04 40 fd 8d f9 be f0 e4 5a c0
       -0.5994551 2.073333 -0.4874114 -3.4202232
0003b0 1b b7 06 bf 1b 79 1b 3f 4c 33 11 3f 14 07 87 be
       -0.52623147 0.6073167 0.567189 -0.26372588
0003c0 ed e3 f3 3f e8 5a fd be de e8 2c bf 08 7f 07 40
       1.9053932 -0.49483418 -0.6754283 2.1171284
0003d0 e2 6e 1e 3d 45 d9 9a bf de 2b db be 99 a5 33 c0
       0.038679965 -1.2097555 -0.42806906 -2.8069823
0003e0 a3 9e 2a 3f f0 bf 6f 3f 9b e8 17 40 14 57 4d bf
       0.6664831 0.9365225 2.373572 -0.80210996
0003f0 d4 1e 01 bf 0d b5 14 c0 ab 3a b5 bf 09 24 37 40
       -0.50437665 -2.3235505 -1.4158529 2.8615744

embeds.5.weight f4 [3, 2]
000000 da 8a cc 3f 9b 7f 80 bf 66 c0 63 3e 97 cd 8a 3f
       1.5979874 -1.0038942 0.22241363 1.0843991
000010 e5 02 8f bf 23 af 89 bf
       -1.1172758 -1.0756572

layers.0.weight f4 [240, 98]
000000 ae 69 02 bc 78 15 05 bd 8a 52 8c 3e 3a 60 1f be
       -0.007959766 -0.032491177 0.27406722 -0.15564051
000010 b7 fb 79 3d ee ca ba 3b bc 6d 4c 3e 5b d5 70 bd
       0.06103107 0.0057004606 0.19963735 -0.05879722
000020 a7 5f e1 3b da 4d 03 3e db 35 05 bc 10 b3 9e 3d
       0.0068778577 0.12822667 -0.008130516 0.07748997
000030 4f 2a 21 bd 22 d3 dc bc 48 fb 36 3e 51 8a ab bc
       -0.03934699 -0.026956145 0.17869294 -0.020939978
000040 97 58 9c 3d 4e da 72 bd af 1c 70 3e ae c2 89 bd
       0.07634085 -0.059290223 0.23448442 -0.06726585
000050 da 80 72 3d c7 eb 9b 3d 68 9d a7 bd 55 1f 16 3e
       0.059204914 0.0761333 -0.0818432 0.1466039
000060 34 40 de ba 81 9b 36 bc 4e 0c da 3b 07 fd 99 3d
       -0.001695639 -0.011145473 0.006654299 0.07518964
000070 c6 5a 90 3d 7a f0 61 3e 03 7e cd bd dc 09 6b bd
       0.07048564 0.22064391 -0.100338005 -0.05738245
000080 94 35 e6 bb 7c b6 2a bd b3 2a 39 be 78 9e 07 be
       -0.00702543 -0.041677937 -0.18082695 -0.13244045
000090 24 92 4e 3e 75 bc 95 3d 1e 14 08 bd 80 07 81 3d
       0.20172936 0.07311336 -0.03322231 0.06300259
0000a0 0f aa f9 3d a8 e9 8d 3e 2a 89 52 3e 04 de 50 3e
       0.12190639 0.27717328 0.20560136 0.20397192
0000b0 f7 14 1d be ee 59 96 bd d4 9e fa 3e 47 2d e8 be
       -0.15340029 -0.073413715 0.489493 -0.45347044
0000c0 e1 50 c8 3d 75 2b 2a be 13 51 1b be 54 22 b6 bd
       0.097810514 -0.1661814 -0.15167646 -0.08893266
0000d0 08 be db 3d 89 ca 10 bd c4 40 aa 3d 0a 8c e3 bc
       0.10729605 -0.035349403 0.08313134 -0.027776737
0000e0 95 5c a2 3d 41 62 3f 3e 44 98 25 3e e6 14 07 be
       0.07927815 0.18689825 0.16171366 -0.13191566
0000f0 6d 5b 61 bd fd cd 57 bd a1 df df 3c 28 31 6f 3d
       -0.05501883 -0.05268668 0.027328314 0.05839649
000100 f3 01 6f 3b 83 00 a4 bd c0 40 dc 3d 58 84 66 3e
       0.0036469668 -0.0800791 0.107545376 0.22511423
000110 b8 f7 7b 3d 21 91 28 3e 0d ea d4 bd 54 86 85 bd
       0.06151554 0.16461612 -0.10396204 -0.06519762
000120 b1 73 8d bc 77 56 22 3e 41 a4 cc 3c df 61 c7 3d
       -0.01726708 0.15853296 0.024980666 0.09735464
000130 22 66 3f be 55 d0 9b 3d b6 50 e2 bd 9f 73 a6 3d
       -0.18691304 0.076080956 -0.11050551 0.08127522
000140 cf df 00 3e 2c 08 76 be 96 a7 9a 3d bc 02 61 bd
       0.12585376 -0.24026555 0.07551496 -0.05493425
000150 59 72 0e be f5 b0 02 3d 5a 87 17 be fe cc 3d 3e
       -0.13910808 0.03190704 -0.14797726 0.1853523
000160 eb c5 29 3c 22 62 ee 3d f4 74 c3 bd 1f fb d7 3d
       0.010362129 0.11639811 -0.095437914 0.105459444
000170 9a 3d 32 bc e4 a4 ae bd 73 cf 3e bd ce f0 d2 3d
       -0.010878945 -0.08527544 -0.046584558 0.10299836
000180 07 a7 4c 3e a1 b5 e2 be 9e f4 52 3d 42 6f 8e bd
       0.19985591 -0.44279197 0.051502816 -0.069548145
000190 e0 86 7a 3e 8e c7 9e bd 73 ab 5b be 86 5b b1 bd
       0.24465513 -0.07752906 -0.21452121 -0.08660035
0001a0 76 0f 91 3e cc e8 7f bc bd 7f 03 3f de a2 a1 3d
       0.28332108 -0.015619468 0.5136679 0.078923926
0001b0 96 25 0c be 87 71 99 3e 8b 8d 64 be bb 1e 5d be
       -0.13686213 0.29969427 -0.2231962 -0.21593754
0001c0 13 c5 81 bd 89 ca 7b be 0e e6 c1 bd d7 20 19 3f
       -0.06336417 -0.2458898 -0.094677076 0.59815735
0001d0 62 f9 db bc 0f a8 80 3e 9d dd 07 3e 40 c5 19 3f
       -0.026852313 0.2512822 0.13268133 0.60066605
0001e0 5d 6f fd 3d c1 91 85 bc dd c4 b3 3d 78 31 e3 be
       0.123747565 -0.016304852 0.08777783 -0.4437368
0001f0 14 77 b4 be 8a 9f 12 bd fe e9 80 3d 40 08 19 bd
       -0.352471 -0.03579668 0.062946305 -0.037361383
000200 27 65 2b 3e 7f fa 8f 3c 18 0b 1a be 57 d9 29 3d
       0.16737805 0.0175755 -0.15043294 0.041467037
000210 96 a9 cb bd 1d 94 a5 be ae a8 55 3e fb d8 77 be
       -0.09944455 -0.32339564 0.20865127 -0.24203865
000220 a1 48 31 3e b4 2c a4 3d d8 7c c8 bd 83 e5 13 3d
       0.17312862 0.08016339 -0.09789437 0.03610755
000230 77 80 03 bd 94 f7 c9 3d e8 20 59 bc 87 51 1e 3d
       -0.032104935 0.09861675 -0.013252474 0.03865197
000240 88 b6 1a 3d 04 f3 65 3d 05 46 6f 3d 94 e3 04 3c
       0.03777173 0.05613996 0.058416385 0.0081108995
000250 94 99 5a bd 66 cd 1d 3d 82 fe 89 3d 22 76 99 3c
       -0.05336912 0.03852596 0.06737997 0.018733088
000260 81 3d eb bd 60 44 8a bd 4e 02 5a 3e cd 34 35 3e
       -0.1148634 -0.06751323 0.21289942 0.17695923
000270 2e 72 4b bd 10 07 a6 3d 45 66 12 bd c6 8d 3b bd
       -0.049669437 0.08106816 -0.035742063 -0.045789503
000280 89 1c 8b 3d 66 85 9f bc b3 d1 9b 3d 71 44 4e bc
       0.06792552 -0.019472789 0.07608356 -0.01258956
000290 07 d7 a0 3c 69 a8 ab bd 45 62 03 be 74 1b 0f 3b
       0.019633783 -0.08381731 -0.12830456 0.0021836432
0002a0 a9 8f ea bc e5 00 75 3e 5d fa f8 3d d8 9a a3 3c
       -0.028632956 0.23926122 0.12157128 0.019971296
0002b0 b3 3d 3f 3b a0 29 83 be 3f 74 e0 3d 83 ae fd bc
       0.0029181063 -0.25617695 0.10959672 -0.030967003
0002c0 b2 ef 20 bd 6e 11 b2 3d b5 1d 79 bc af 71 25 3e
       -0.03929109 0.08694731 -0.015204837 0.16156648
0002d0 ea c7 db bd 1e d8 84 3d 69 56 f2 3d aa cf 0e 3e
       -0.1073149 0.064865336 0.11832888 0.13946405
0002e0 b0 82 07 3e 8d b8 1a 3a e9 45 9e 3c 08 28 08 be
       0.13233447 0.0005902134 0.019320445 -0.1329652
0002f0 bc 8b 73 3e 69 3f 81 bd f4 af 44 3c 85 04 45 bc
       0.23783773 -0.06310923 0.012004841 -0.012025003
000300 fb e2 92 3c 21 06 6d bd 6d 2a 4a 3c 2d 8f 17 3e
       0.017930498 -0.057867173 0.012339217 0.14800711
000310 a9 d6 e5 3d dc 9b ec bd ea 19 e4 3c d6 39 be bd
       0.11222584 -0.11553165 0.027844388 -0.09288375
000320 68 0c 18 3e 24 5a a7 3d 64 50 27 be fa 3b 0c 3e
       0.14848483 0.0817149 -0.1633926 0.13694754
000330 05 d8 3c bd d8 07 fe ba cf 17 95 bd b7 20 4f 3e
       -0.04610445 -0.0019381 -0.07279932 0.20227323
000340 64 92 2c bd 3e 39 0f be 1f da 08 3e 3d af b0 3d
       -0.042131796 -0.1398668 0.13364457 0.08627174
000350 42 7d cc bd 6e a0 f0 bd 50 9c 86 3d ff 99 a8 bd
       -0.099848285 -0.117493495 0.06572783 -0.082324974
000360 a0 02 6a 3e 2a b7 77 bd e8 a7 d4 bc b6 eb 16 bd
       0.22852564 -0.060477413 -0.02595897 -0.036845885
000370 46 04 9a bc 07 29 ae 3d 55 69 0d bd 40 2c 95 3d
       -0.018800866 0.08503919 -0.03452428 0.07283831
000380 f5 fd dd bc b1 c0 d0 3e 42 9a 06 bd 5d c1 d1 bd
       -0.027098635 0.40772012 -0.032861955 -0.10241959
000390 90 ea 01 3e 41 b5 87 be e7 f1 ec bd 82 20 21 be
       0.12687135 -0.26505473 -0.11569577 -0.15735057
0003a0 cc 06 76 3c f1 cd d5 3d 84 24 ab 3d 2f 61 0e 3e
       0.015016269 0.10439671 0.08356574 0.1390426
0003b0 58 70 94 3d 4b 92 55 3e 11 0c 57 3e 43 bb 01 3f
       0.0724799 0.20856588 0.21000697 0.50676364
0003c0 80 7b ef bc e4 8a 94 bd ec b0 b6 3e bf 3b 0b be
       -0.029233694 -0.07253054 0.35681856 -0.1359701
0003d0 04 4f b4 bb 23 cd 02 bb 58 53 dc 3e 4f ca c9 bc
       -0.0055025835 -0.0019958697 0.43032336 -0.024632601
0003e0 a0 ff d7 bd 56 ce a4 bd cd ba 13 be 64 78 8c be
       -0.105468035 -0.08047168 -0.14426728 -0.274356
0003f0 e4 bb c4 3d 0c 8b 33 be ea 53 c1 3d 0c 80 00 bd
       0.0960615 -0.17533511 0.094398335 -0.031372115

layers.0.bias f4 [240]
000000 cf 92 ff be fa 68 21 3d cf fe 93 be a6 b7 10 bf
       -0.49916694 0.039406754 -0.2890534 -0.56530225
000010 ef 8e 63 bf 1f 0a 53 be 86 e3 6d bf 54 46 dd 3e
       -0.88889974 -0.2060933 -0.929253 0.4321772
000020 5e ed b8 be be 73 00 3f a8 0e 89 bf de 06 03 be
       -0.36118597 0.5017661 -1.0707598 -0.12795588
000030 c6 7b 34 bf 0a bf ac bf f7 6b c8 be 36 4c c6 be
       -0.70501363 -1.34958 -0.3914487 -0.3873002
000040 e9 4a 1e bf dd 77 dd bd f4 d4 52 bf f8 48 51 bf
       -0.61833054 -0.10813878 -0.8235619 -0.81751966
000050 ba cd f5 bc c0 36 a0 bf 56 e9 74 bf 00 55 5f bf
       -0.030005325 -1.2516708 -0.9566854 -0.87239075
000060 cc 5a 2e bf 9f 5c 05 bf 65 bd 9c be 63 d3 b4 bf
       -0.68107295 -0.52094454 -0.30613247 -1.412701
000070 bf 5d 09 be 6f 9d 9e be 5e bf 9f 3e 9e 2e 16 bf
       -0.13414668 -0.30979487 0.3120069 -0.5866488
000080 2b 70 88 bf f2 53 cf be 04 c7 61 bf 67 0a 57 bf
       -1.0659231 -0.40493733 -0.881943 -0.8400025
000090 67 5d 69 be 5a 44 31 3f 75 94 c0 be 0e c0 64 3e
       -0.22789536 0.6924492 -0.37613264 0.22338888
0000a0 f2 e6 8e bf 5b 94 0b 3f 62 2f 23 bf a6 d1 43 3e
       -1.1164229 0.5452325 -0.63744175 0.19122943
0000b0 9b 1f de be 8f 11 d0 be 64 cf 11 bf f5 15 8c be
       -0.43383488 -0.40638396 -0.5695708 -0.27360502
0000c0 f1 df 9d bf 5f f9 13 bf 53 03 f1 bd 4b 42 0c bf
       -1.2333966 -0.57802385 -0.11768212 -0.54788655
0000d0 7b ee d0 bf d9 60 a0 be 01 bc 5f bf 46 2a b1 be
       -1.6322778 -0.3132389 -0.87396246 -0.34602565
0000e0 05 09 5d 3d b5 b4 1b 3f 52 c2 5b 3f 93 a9 e7 3c
       0.05396368 0.6082261 0.85843384 0.028279101
0000f0 4d 1d eb be 37 6b f9 be 5d 54 4e bf 78 63 89 bf
       -0.45920792 -0.4871461 -0.8059748 -1.073348
000100 45 fa 3a 3e ed 49 1c 3f d9 6f cc be 73 d2 b5 bf
       0.18259533 0.610503 -0.39929083 -1.4204849
000110 c4 10 05 bf 99 4e fd be 03 20 98 bf ab ec 85 bc
       -0.5197871 -0.49474028 -1.1884769 -0.016348204
000120 01 be 4b 3e 4a dd 01 bf e9 20 81 bf bd ff 6c bf
       0.198967 -0.50728285 -1.0088168 -0.92577726
000130 18 6e 7b bf 1f 99 7e be 6a 14 7b 3e a5 01 30 bf
       -0.98214865 -0.24863099 0.24519506 -0.6875251
000140 cb e4 64 bf 51 70 ba be 6c 09 47 bf be fb 4c bf
       -0.8941161 -0.36413816 -0.7774875 -0.8007163
000150 c7 7e 6b bf f8 ca 9e bf 1e aa 23 bf 39 c2 e4 be
       -0.9199032 -1.2405691 -0.63931453 -0.4467943
000160 d5 b2 f0 be 73 76 b3 be ea 8c dc 3d d1 6d c8 bf
       -0.47011438 -0.35051307 0.10769065 -1.5658513
000170 56 8b 3a be 9f 29 14 bf 7b 54 d4 bf 3e da 39 bf
       -0.18217215 -0.5787601 -1.6588281 -0.72598636
000180 e8 97 13 bf c2 0a 03 bf 19 c1 3e bf 17 b7 0c bf
       -0.57653666 -0.5118829 -0.74513394 -0.5496687
000190 a8 94 3d bf f5 eb 01 bd d7 65 76 bf bb 30 f7 be
       -0.74054956 -0.031719167 -0.96249145 -0.48279366
0001a0 c6 14 c2 bf 87 a9 9c bf ff 23 82 bf 7e bc d8 be
       -1.516259 -1.2239236 -1.0167235 -0.42331308
0001b0 05 19 19 3e 20 3d b4 3d 6f f6 03 bf 9a b0 cd 3d
       0.1495095 0.08800721 -0.515479 0.1004345
0001c0 14 25 f5 be 93 8e 50 bf d6 84 64 be 9f c9 8c be
       -0.4787985 -0.8146755 -0.22316298 -0.27497575
0001d0 5f 39 ad bf 56 11 86 bf 46 47 b9 bd b0 fe 8d bf
       -1.3533133 -1.047404 -0.090467975 -1.109335
0001e0 2d 25 8e bf 92 f0 43 bf 0e 70 92 be 8a c6 04 bf
       -1.1105095 -0.76538956 -0.28601116 -0.51865447
0001f0 6d bd 15 bf be 2d 6a bf a5 94 3a be 00 2c 84 bf
       -0.58492166 -0.9147605 -0.18220766 -1.0325928
000200 2a 54 e8 3b ed 70 3e 3e 7b d6 88 3e 14 93 13 3d
       0.0070901113 0.18597765 0.26726136 0.036028937
000210 02 54 fe 3e 3b 9a 63 bf 1c ba 92 be cb 19 41 bf
       0.49673468 -0.8890721 -0.28657615 -0.7542998
000220 34 e4 2b bf 11 9c 72 bf 30 20 92 bf 69 84 3a 3e
       -0.67145085 -0.9476939 -1.1416073 0.18214573
000230 1a 0a 81 bf d0 79 5a bf b1 dc a5 bf 53 05 a6 be
       -1.0081208 -0.8534212 -1.2957975 -0.32425937
000240 e2 7f 0a bf 2f fc 49 3d 2b 1c 6a bf c2 3a 36 bf
       -0.54101384 0.049312767 -0.9144923 -0.7118341
000250 14 f3 b9 be 84 20 86 be 52 30 ba be 72 c1 9f be
       -0.36318266 -0.26196682 -0.3636499 -0.31202275
000260 a9 12 08 bf 1e 2d f8 3c cf c4 2c 3e 6d a8 ab be
       -0.53153473 0.030294951 0.16871952 -0.33526936
000270 8e a3 47 bf bb 49 9a bf 46 03 57 bf 7f 70 a7 bd
       -0.7798394 -1.2053751 -0.8398937 -0.08175754
000280 b5 a8 95 bf fb 5d 01 3e c0 0d 9f be 6e 6a fc 3e
       -1.169211 0.12633507 -0.31065178 0.4929995
000290 bb ea 8a bf d0 24 42 bf 13 83 e1 be 35 d0 ce be
       -1.0852884 -0.7583742 -0.44045314 -0.40393224
0002a0 91 4d 50 bf fa 94 a2 be 07 cb 87 bf ee 65 3a bf
       -0.81368357 -0.31754285 -1.0608834 -0.7281178
0002b0 22 12 04 bd 1f 72 7b bf 7a 99 00 3e d2 be 11 bf
       -0.032243855 -0.9822101 0.12558547 -0.56931794
0002c0 e4 d7 cd 3e 05 e4 55 bf d0 f3 f5 3e 95 5e 3a bf
       0.40203774 -0.83551055 0.48037577 -0.7280057
0002d0 f3 12 c4 3e de eb 41 bd ea 57 05 bf 8a bf a7 be
       0.38295707 -0.04734408 -0.5208727 -0.3276332
0002e0 78 24 7f bf 01 69 5d bf 8c f1 5c 3e 72 94 43 bf
       -0.9966502 -0.8648835 0.21576518 -0.76398385
0002f0 5c c5 39 bf f2 c5 b7 bf 5b c4 7e bf 5e 29 5d bf
       -0.7256677 -1.4357283 -0.99518365 -0.86391246
000300 7c c6 30 3f a8 2f e6 bf c9 c7 53 3e 3b d8 a5 3f
       0.69052863 -1.7983294 0.2068168 1.2956613
000310 15 7e 2d 3e 39 9e 18 be 49 ab 39 bf f4 8a 66 bf
       0.16942628 -0.14904107 -0.72526985 -0.90055776
000320 bd cb 27 3f 6e 54 8f bf 10 35 a9 3d 6b 20 a0 3e
       0.65545255 -1.1197641 0.08262074 0.31274733
000330 a1 a7 fa be ce 06 25 be 30 b2 27 bf 1a b9 8f bd
       -0.48956016 -0.16115877 -0.6550627 -0.07017727
000340 23 ca 2b bf 42 5b c9 3e 5e f4 a4 bf e9 15 0d bf
       -0.6710531 0.39327437 -1.2887075 -0.5511156
000350 4e dc c4 be 2f 00 a3 3d f4 b7 ca be 67 64 94 3d
       -0.3844933 0.079590194 -0.3959347 0.07245713
000360 a0 32 93 3e 72 49 ff be 3a 92 54 3e 24 b0 dd bd
       0.2874956 -0.49860722 0.20758906 -0.10824612
000370 23 04 84 bf 98 6a e8 3d 11 6f 71 bf 10 1f c0 bf
       -1.0313762 0.11348456 -0.943101 -1.500948
000380 f6 ac b5 3e 50 13 8a bd 9e 49 2d 3e 2a 6d 3f 3e
       0.3548352 -0.06741965 0.16922614 0.18693987
000390 e0 cf 64 bf c8 8e 99 bf a7 c0 b9 bd 29 36 75 bf
       -0.8937969 -1.1996698 -0.09069949 -0.95785767
0003a0 dd 5b 00 bf 67 e7 ba be 0e 53 59 bf a2 ef 53 bf
       -0.5014017 -0.3650467 -0.84892356 -0.82787526
0003b0 7b 51 ea be 96 54 45 bf e0 04 12 3d 50 ea ff be
       -0.4576529 -0.7708219 0.03564918 -0.49983454

layers.2.weight f4 [240]
000000 76 b4 1e 3f 35 96 f4 3e 3d 1c 21 3f 95 42 31 3f
       0.6199411 0.4777085 0.62933713 0.6924222
000010 70 be 6e 3f d5 a7 81 3f ce 93 1d 3f 4e 67 5e 3f
       0.93259335 1.0129343 0.6155366 0.8687638
000020 f0 78 57 3f 4c 68 44 3f f3 4f d8 3e 28 86 85 3f
       0.8416891 0.76721644 0.42248496 1.0431566
000030 c9 a2 03 3f 74 38 30 3f ca 73 6f 3f 8f 61 46 3f
       0.51420265 0.6883614 0.93536055 0.7749261
000040 bf ed 09 3f f8 73 86 3f b7 91 8c 3f 9b 51 ce 3e
       0.53878397 1.0504141 1.0981969 0.40296635
000050 cd 1c d6 3e ec d5 20 3f 04 fd 34 3f a5 39 08 3f
       0.41818848 0.6282642 0.7069857 0.5321296
000060 48 4a 27 3f 36 c9 4e 3f 09 28 08 3f 20 cb 67 3f
       0.6534772 0.80775774 0.5318609 0.9054432
000070 2b fe 54 3f 54 0d 60 3f 8b f3 62 3f 18 4b 16 3f
       0.8320033 0.8752034 0.8865287 0.58708334
000080 8d 7c 0a 3f 25 3a 37 3f c4 2b 12 3f 25 fb c3 3e
       0.540963 0.71573097 0.5709803 0.38277546
000090 98 62 f2 3e 88 72 4d 3f 2d f8 6a 3f 1f 19 59 3f
       0.47340846 0.80252886 0.91784936 0.84803957
0000a0 13 1c 06 3f 4f 99 76 3f 23 d5 4c 3f 1d 45 50 3f
       0.5238659 0.9632768 0.8001272 0.8135546
0000b0 61 77 7e 3f 6a ea 2c 3f bf ef 19 3f e3 5d 3b 3f
       0.9940091 0.6754519 0.6013145 0.73190135
0000c0 12 08 23 3f ba 4f 76 3f 22 4a 1f 3f e1 e2 60 3f
       0.6368419 0.96215403 0.6222249 0.8784619
0000d0 8e 64 5c 3f aa b8 1b 3f 6f d0 59 3f 16 3a f9 3e
       0.86090934 0.6082865 0.8508367 0.4867713
0000e0 29 ec 6f 3f cb dc 6c 3f 4f 78 08 3f ad 75 13 3f
       0.93719727 0.92524403 0.53308576 0.57601434
0000f0 b5 5c 71 3f cd fa e8 3e f0 38 02 3f b5 7a 48 3f
       0.94282085 0.45503846 0.5086813 0.78312236
000100 d9 db 7c 3f 63 fc 9b 3e 8d 94 f1 3e 28 17 4a 3f
       0.9877296 0.30465993 0.47183648 0.78941584
000110 73 cb 58 3f 6c 1f 5b 3f 96 cb dc 3e e0 18 56 3f
       0.8468544 0.8559482 0.43124074 0.83631706
000120 cb d6 14 3f 1c 7e c3 3e 76 96 5c 3f 67 c7 e5 3e
       0.5814025 0.3818215 0.86167085 0.44878694
000130 10 4d 0d 3f 75 6a dc 3e d3 54 83 3f f9 66 76 3f
       0.55195713 0.4304997 1.0260261 0.96250874
000140 de c8 d5 3e bb 78 75 3f 8d 1e 76 3f 5f 0c 66 3f
       0.41754812 0.95887345 0.96140367 0.89862627
000150 5b bf 12 3f 10 8a 7a 3f 2c 59 5b 3f bf 8c df 3e
       0.57323235 0.97866917 0.8568294 0.43662068
000160 06 50 c0 3e 56 7a 34 3f e9 9a 4b 3f 82 d1 d4 3e
       0.37561053 0.7049917 0.7953325 0.41566092
000170 54 75 20 3f d0 65 2d 3f 1d 54 26 3f 64 b9 52 3f
       0.6267903 0.6773348 0.64972097 0.82314134
000180 fe 51 65 3f fb d1 57 3f d4 17 3e 3f f6 72 ec 3e
       0.89578235 0.8430478 0.7425511 0.46181458
000190 39 00 a8 3e f9 0a 44 3f 0a 13 70 3f 42 ae bf 3e
       0.3281267 0.7657924 0.9377905 0.37437636
0001a0 7e e1 e1 3e 8b 8b 71 3f ca 38 01 3f 04 1f 69 3f
       0.4411735 0.9435355 0.5047728 0.9106295
0001b0 1f 83 47 3f 56 40 40 3f 8e c6 29 3f b2 31 5e 3f
       0.7793445 0.7509817 0.66318595 0.8679458
0001c0 f7 89 b2 3e 6c e6 1a 3f 57 ff 78 3f 4f 91 51 3f
       0.34870884 0.60507846 0.9726462 0.8186235
0001d0 11 ce 32 3f 84 f6 41 3f 8a 91 42 3f 0c 0f 88 3f
       0.6984568 0.7576678 0.76003325 1.0629592
0001e0 ea 55 8f 3f 52 ed 79 3f 38 0e 3e 3f ea 1d ce 3e
       1.1198094 0.9762775 0.74240446 0.40257198
0001f0 16 c4 d7 3e 7d 61 02 3f 5b c2 a4 3e 41 3f 57 3f
       0.4214179 0.50930005 0.3217953 0.8408089
000200 31 a5 c9 3e b0 bc 89 3f ce 01 3c 3f af 9a 5d 3f
       0.39383844 1.0760708 0.73440254 0.86564153
000210 47 78 41 3f ba 42 67 3f ff 5e 88 3f 6f b4 79 3f
       0.75574154 0.9033619 1.065399 0.97540945
000220 e5 ea 7e 3f f9 e0 d0 3e 06 05 e3 3e 0f 1b 0d 3f
       0.9957717 0.4079664 0.4433977 0.55119413
000230 f2 be 86 3f 88 b4 84 3f 3f 0f f0 3e 66 53 5e 3f
       1.0527022 1.0367594 0.46886632 0.86846006
000240 05 0a 7e 3f 5e 33 54 3f 65 09 07 3f 7e cf 5f 3f
       0.9923404 0.8289088 0.5274871 0.8742598
000250 92 29 83 3f 26 76 66 3f 9f d4 6b 3f ea bb 5f 3f
       1.0247061 0.9002403 0.9212131 0.8739611
000260 a2 31 29 3f ae ea 58 3f 34 3a 56 3f 7e 57 84 3f
       0.6609136 0.8473309 0.8368256 1.03392
000270 f5 d9 83 3f 2a ea d6 3e cd fe 76 3f ea 2b fe 3e
       1.030089 0.41975528 0.96482545 0.4964288
000280 21 99 be 3e ec 65 21 3f 66 02 3d 3f e6 36 ad 3e
       0.37226203 0.63046145 0.73831785 0.33830947
000290 c2 da e9 3e f5 fe 50 3f 12 8e 87 3f 5e b9 62 3f
       0.4567471 0.81639034 1.0590231 0.885641
0002a0 e4 37 ee 3e 1a 34 36 3f 77 fe f4 3e a4 05 ea 3e
       0.46527016 0.7117325 0.4785039 0.45707428
0002b0 f8 bc 63 3f 47 bb df 3e 36 a0 08 3f 1a a9 ef 3e
       0.8896022 0.4369757 0.5336946 0.46808702
0002c0 49 29 40 3f 67 64 4c 3f d3 78 9d 3e 15 e1 0a 3f
       0.75062996 0.798407 0.30756244 0.542497
0002d0 97 2d 01 3f 13 83 5f 3f 2e 94 59 3f c3 7d 5e 3f
       0.5046019 0.8730938 0.8499173 0.8691065
0002e0 84 a8 17 3f 79 a5 07 3f 96 84 7d 3f 65 56 fe 3e
       0.5924151 0.52986866 0.99030435 0.4967529
0002f0 ed f2 7a 3f 3b 1b 59 3f 27 13 f3 3e aa ac 68 3f
       0.98026925 0.84807175 0.4747555 0.90888464
000300 29 9f 3f 3f 23 c8 0b 3f 6d 63 67 3f d1 6f 01 3f
       0.74852234 0.5460226 0.90386087 0.50561243
000310 a8 9e b0 3e 65 f8 45 3f 9b 23 20 3f a6 70 fe 3e
       0.34496045 0.77332145 0.6255433 0.4969532
000320 e2 22 ab 3e 9f 7b ce 3e 5f ba 47 3f c3 89 51 3f
       0.3342505 0.4032869 0.78018755 0.8185083
000330 37 c4 74 3f 01 8e ba 3e 88 1e 33 3f b7 af a2 3e
       0.956119 0.36436465 0.6996846 0.31774685
000340 5d ed 55 3f cd 4d 6f 3f 55 d2 5c 3f d8 2f 7e 3f
       0.8356531 0.9347809 0.8625844 0.99291754
000350 69 12 63 3f 4f f7 0d 3f f2 e4 84 3f c0 2b 79 3f
       0.88699967 0.5545549 1.0382369 0.9733238
000360 ba 2d 48 3f 33 56 58 3f b5 30 06 3f 07 48 ac 3e
       0.78194773 0.8450653 0.5241807 0.33648703
000370 2e 99 12 3f 89 44 86 3f 5a d5 e2 3e f8 e5 1c 3f
       0.57264984 1.0489665 0.443034 0.61288404
000380 06 ab 76 3f 70 c3 88 3f 2e 97 09 3f 22 c7 62 3f
       0.9635471 1.0684643 0.53746307 0.885851
000390 34 3d 66 3f 7a 4d 5e 3f a7 4f 9c 3f ad a4 4b 3f
       0.8993714 0.8683697 1.2211808 0.7954815
0003a0 45 77 02 3f 3a d2 2e 3f 41 88 00 3f 5a 3b fa 3e
       0.5096324 0.6828953 0.50207907 0.48873407
0003b0 e2 ac 2a 3f ca d5 75 3f 4d 24 68 3f 8b 54 77 3f
       0.6667005 0.9602934 0.9068039 0.9661338

layers.2.bias f4 [240]
000000 03 c7 b3 3c 16 54 8d 3e af b4 95 3d 55 1c 86 3e
       0.021945482 0.27603215 0.07309853 0.2619349
000010 0a a7 16 3f 27 1f 88 3e c4 64 68 3e 89 42 0c 3f
       0.5884863 0.26586267 0.22694689 0.54789025
000020 53 04 c6 3e fc 9c 46 3f 2d c3 0d be 7e 9a 02 3f
       0.38675174 0.7758329 -0.13843985 0.51016986
000030 3d 1f 19 3d 09 a7 05 3e 5a fb de 3e d0 c6 f6 3e
       0.037383307 0.13052 0.4355114 0.48198557
000040 0d 3a bb 3c 54 e2 a1 3e 8a ad c6 3e 87 03 ef 3d
       0.02285483 0.31617987 0.38804275 0.11670595
000050 dd e0 3e 3e c4 b1 29 3d 61 ef 4b 3e 2b 39 cc 3c
       0.18640466 0.041429296 0.19915535 0.024929604
000060 24 bd cd 3d 54 61 11 3f 03 13 01 bd 70 90 30 3e
       0.10045841 0.56789136 -0.03151227 0.17242599
000070 93 3f aa 3e 42 fe 12 3f b3 c5 0d 3f 07 1a 0b be
       0.33251628 0.57419217 0.5537979 -0.13584147
000080 ba 2f 42 3d 39 01 f0 3e 0b 01 44 3e 46 8f da 3d
       0.047408797 0.46875933 0.19141023 0.106718585
000090 ef b5 85 3e a9 e5 16 3f 82 80 ae 3e 31 fd 50 3f
       0.26115367 0.58944184 0.3408242 0.8163634
0000a0 1a a6 0b 3d bc 88 38 3f 56 c0 c0 3e b1 eb f0 3e
       0.034093954 0.7208364 0.3764674 0.47054818
0000b0 4f 0a 93 3e 43 a8 8f 3e ac b4 c7 3d 0f d2 30 3e
       0.28718802 0.2805806 0.09751257 0.17267631
0000c0 70 c9 a0 bd c3 f1 e7 3e 8a cf 41 3d 6b 47 05 3f
       -0.07850921 0.45301637 0.047317065 0.520621
0000d0 ca d7 14 bd df 98 90 3e 8a e5 d5 3e aa e6 9b 3d
       -0.036338605 0.2824163 0.41776687 0.07612355
0000e0 b9 39 42 3f 22 c9 19 3f 4b e7 84 3e af e2 c0 3d
       0.7586933 0.6007253 0.25957713 0.094182365
0000f0 87 cd 05 3f 10 a7 8b 3d 76 84 b0 bc 74 ae 7a 3e
       0.52266735 0.06818974 -0.021547537 0.24480611
000100 2e d9 0a 3f 50 6b ee 3d aa 78 4e 3e 91 eb e8 3d
       0.5423764 0.11641562 0.20163217 0.11373056
000110 96 a5 e6 3e f2 bf 60 3e fd 0e bd 3d ec 34 09 3f
       0.45048207 0.21948221 0.092313744 0.5359638
000120 1f 14 56 3d 4e 5c 1b 3e 44 ed fc 3d 84 3c e1 3d
       0.052265283 0.1517193 0.12349942 0.109978706
000130 fa 5c 5b 3c 86 67 12 be 69 c5 06 3f d8 44 1a 3f
       0.013388867 -0.14297304 0.52644974 0.602613
000140 d5 dd 98 3d 11 3c 1b 3f 32 61 f3 3e dc 98 a9 3e
       0.07464186 0.6063853 0.47535092 0.33124435
000150 1f f1 29 3d cf be 99 3e e6 7c 02 3f 23 a7 05 bd
       0.041489717 0.30028388 0.5097183 -0.032630097
000160 85 cb 9e 3d 8a 1e 9a 3e b3 ed 0d 3f 1f 4a 32 be
       0.07753662 0.30101424 0.55440825 -0.17411087
000170 8d 1c 9a 3d 85 22 1d 3e e8 b6 8e ba ab c4 1e 3f
       0.07524977 0.153452 -0.001088825 0.6201884
000180 37 35 8a 3e cf 14 ff 3e 82 f1 86 3e 3a 01 2b 3e
       0.26993725 0.49820563 0.2635613 0.16699687
000190 ab 79 ab 3d fd f7 db 3e 30 07 9f 3d 6f 80 19 be
       0.08372816 0.42962638 0.07765043 -0.149904
0001a0 06 83 0a be 02 ea 12 3b 04 ed d9 3d 24 5d 0b 3f
       -0.13526544 0.0022417312 0.1064091 0.54438996
0001b0 bb 4b 17 3f 8a 79 1f 3e 97 71 72 3e 37 c5 0e 3f
       0.5909993 0.15573707 0.23676144 0.55769676
0001c0 ec e8 86 3d 78 e0 46 3d 86 b0 e9 3e 1f d7 0b 3f
       0.06587395 0.048553914 0.4564249 0.54625124
0001d0 7b 67 c7 3b 25 f2 16 3e bb cd 29 3f b3 50 19 3e
       0.006085334 0.14740808 0.66329545 0.1497219
0001e0 2d 1c 92 3e 6f 34 84 3e 01 ae a9 3d 19 43 30 3e
       0.2853712 0.25821254 0.08285142 0.17213096
0001f0 cb 86 1f 3e 2b c3 d5 3d e7 31 19 3e 3e af a4 3e
       0.15578763 0.10437616 0.14960442 0.3216495
000200 14 18 b5 bd d9 8d a7 3e 22 b7 35 3f d8 dc 2f 3f
       -0.08842483 0.3272541 0.70982563 0.68696356
000210 40 90 18 3f 4e 3b c6 3e 47 c4 6d 3e b1 42 d6 3e
       0.5959511 0.3871712 0.23219405 0.41847757
000220 ef 55 e0 3e e5 b4 ec 3d dd 98 a5 3d 2c ee 3d 3e
       0.43815562 0.115579404 0.08085797 0.18547887
000230 fb 90 9d 3e 5c 79 08 3f 7d 7b 2f be 59 01 16 3f
       0.30774674 0.5331018 -0.17136951 0.58595806
000240 1f 91 cd 3e df 0c 9f 3e c7 9e 87 bd 57 ec f9 3e
       0.4014978 0.31064507 -0.06622081 0.48813125
000250 62 01 01 3f 6c ce 10 3f 07 ce c0 3e f3 af 0f 3f
       0.50392735 0.56564975 0.37657186 0.5612785
000260 ef f4 84 3e ae e5 bb 3e ed bf 19 3f 8e ab 35 3e
       0.2596812 0.3669867 0.6005848 0.17741224
000270 e4 19 f5 3e 3f d7 27 3d 51 f8 bf 3e 01 05 92 3e
       0.47871315 0.04097676 0.37494138 0.28519443
000280 95 f3 8e 3d a6 02 c5 3e a2 c3 98 3e 67 72 02 3e
       0.06980053 0.38478583 0.29836756 0.12738954
000290 27 57 6d bd 63 d2 d8 3d 83 8d c0 3e 98 d4 4d 3e
       -0.057944443 0.10587003 0.37607965 0.2010063
0002a0 59 47 f6 3d ac 7b 8e 3e 73 d0 70 3d 03 39 03 3e
       0.12025327 0.2782873 0.058792543 0.12814717
0002b0 9e e5 9a 3e 46 36 05 be 6d 0a 5b 3e 9f 7d 48 3e
       0.3025331 -0.13008985 0.21390696 0.1957917
0002c0 9a b5 c5 3e b2 0e b6 3e 40 94 9c 3d 3c fd 13 3c
       0.38615113 0.35558087 0.07645464 0.009032544
0002d0 38 0b 8b 3e 20 af d8 3e 55 a4 0d 3f 8a 91 17 3e
       0.27156997 0.4232111 0.55328876 0.14801612
0002e0 5c b0 67 3e 84 26 30 3e f0 32 29 3f 85 12 93 3d
       0.2262587 0.17202193 0.6609335 0.07181267
0002f0 53 f0 ec 3e 06 7f e7 3d ff ff eb 3d 8b 85 a1 3e
       0.46277103 0.11303525 0.11523437 0.31547198
000300 4d 4d 33 3f e1 22 59 be 16 c6 04 3f b3 98 87 3e
       0.70039827 -0.21204711 0.51864755 0.26483688
000310 23 16 c0 3d d2 0e d0 3e c8 39 16 3e ac b1 d4 bd
       0.09379222 0.40636307 0.1467048 -0.10385451
000320 5e 11 0c 3e 3b 88 87 3d 0e bc 0a 3f 71 a3 33 3f
       0.136785 0.06617781 0.541932 0.70171267
000330 87 20 d3 3e c4 5d e2 3d 30 9f 82 3e c7 23 e9 3d
       0.41235754 0.110530406 0.25512075 0.11383777
000340 ee 62 0a 3f 7d 32 02 3f 12 d1 78 3e 0f 48 03 3f
       0.54057205 0.5085829 0.24298504 0.5128183
000350 45 67 fc 3e dc f1 a9 3e 96 61 ed 3e 03 a0 33 3f
       0.49297538 0.33192337 0.46363515 0.70166034
000360 c8 c7 28 3f 72 1d 06 3f 56 27 70 3e 10 39 b9 bd
       0.6592984 0.5238868 0.23452505 -0.09044087
000370 8b 52 1b bc 15 c0 e9 3e 07 26 12 be 44 c1 c1 3d
       -0.009480129 0.4565436 -0.14272319 0.094606906
000380 9c 0e 09 3f 6d c2 c1 3e eb 80 61 3e e6 11 10 3f
       0.5353792 0.37843648 0.22021835 0.5627731
000390 95 5d 65 3e cc 1e 66 3e e9 e9 b3 3e c6 41 1a 3e
       0.2239898 0.22472686 0.35139397 0.15064153
0003a0 a1 a1 57 3e 54 72 9a 3e 77 81 ad 3d 44 e7 22 3d
       0.2105775 0.3016535 0.08471959 0.039771333
0003b0 de 13 65 3e 1f 9a f8 3e b7 d1 99 3e f2 e3 17 3f
       0.2237086 0.48555085 0.30042812 0.5933219

layers.2.running_mean f4 [240]
000000 55 89 48 3d 64 0b 51 3f 30 ca 0a 3e cd 6f 08 3f
       0.048959095 0.81658006 0.13553691 0.53295594
000010 4c de 84 3f 74 72 df 3d 05 dd a5 3e 0a 25 59 3f
       1.038034 0.10910502 0.32395187 0.8482214
000020 83 78 b9 3e 31 92 86 3f 83 0e a2 3d 60 55 c4 3e
       0.36224756 1.0513364 0.07912924 0.38346386
000030 62 76 00 3e a4 79 dd 3d c3 da d2 3e ef a6 85 3f
       0.1254516 0.10814217 0.41182527 1.0441569
000040 83 9c 86 3d ea f8 fe 3d d1 22 02 3e 48 05 05 3f
       0.06572821 0.1244982 0.12708594 0.51961184
000050 55 bb 6d 3f 7b 8d 2c 3c b7 ff 5d 3e c7 99 1d 3d
       0.9286397 0.010531778 0.21679579 0.03847673
000060 e9 e9 5f 3e 7a 13 17 3f 04 e5 09 3f 0b 25 a2 3d
       0.21866573 0.59014094 0.53865075 0.07917222
000070 aa 4a f8 3e 42 b9 7e 3f b7 16 23 3f c3 ca e8 3e
       0.48494464 0.9950143 0.63706535 0.45467195
000080 d2 65 7a 3c 82 11 a7 3f 2a bf 6c 3e ed 33 b3 3e
       0.015283065 1.3052218 0.23119798 0.35000554
000090 7d 23 27 3f 0a 42 39 3f 96 14 d0 3e 33 50 b9 3f
       0.65288526 0.7236639 0.40640706 1.44776
0000a0 48 8b 09 3e da 39 5e 3f de e6 05 3f 42 df 7a 3f
       0.13432038 0.86807024 0.523054 0.97996914
0000b0 a7 66 37 3e f2 75 06 3f a1 c8 f0 3d 88 ca 82 3e
       0.17910253 0.5252372 0.11757017 0.25545144
0000c0 17 cc b7 3d 39 93 06 3f 38 04 6e 3d 71 09 fc 3e
       0.08974474 0.52568394 0.058109492 0.49225953
0000d0 9c 98 41 3c 87 8f 8d 3f 26 d5 03 3f fb 65 46 3e
       0.01181617 1.1059426 0.51497114 0.1937484
0000e0 50 0c 59 3f 68 f4 49 3f af 00 b2 3f 76 22 9c 3e
       0.8478441 0.7888856 1.3906459 0.30495042
0000f0 5b 84 74 3f ef 5e 56 3e 38 f8 54 3e 68 b2 53 3e
       0.9551446 0.20934652 0.20797813 0.20673525
000100 a9 c5 fd 3e 88 ca bf 3f 87 44 76 3f 29 6e b6 3d
       0.49564865 1.4983683 0.96198314 0.0890773
000110 eb e0 e4 3e c3 a7 bf 3d 37 91 0b 3e 0b 33 38 3f
       0.4470285 0.0935817 0.13629614 0.71952885
000120 75 55 37 3f 30 ce 7f 3f 1e 12 5e 3d ad de 3f 3e
       0.7161477 0.9992399 0.054216497 0.18737288
000130 48 fb 30 3d 72 bb 93 3e bb 03 a0 3e a7 73 36 3f
       0.04320839 0.28853947 0.31252846 0.7127022
000140 20 ea 1f 3e 2e 71 7b 3f 7c 44 21 3f 05 f9 ae 3e
       0.15616655 0.98219573 0.62995124 0.34174362
000150 02 d4 03 3d 29 8d 85 3e 9d 9d 36 3f aa 6c 8c 3e
       0.03218461 0.2608426 0.7133425 0.27426654
000160 b4 44 35 3e 48 c8 fc 3e bc 4b 72 3f 61 e1 02 3d
       0.1770199 0.49371552 0.9464681 0.03195322
000170 40 bb 3a 3e 33 fd d3 3e 31 79 90 3d 21 ef 90 3f
       0.18235493 0.41404113 0.070543654 1.1322976
000180 f7 3d 2f 3e b4 6f 7c 3f a0 58 d6 3e a9 93 fc 3e
       0.17113481 0.98607945 0.4186449 0.49331406
000190 bb 79 f7 3e 59 0c 16 3f 35 90 2e 3e 59 15 c0 3e
       0.4833506 0.5861259 0.17047198 0.37516287
0001a0 1f ad 9e 3d 2d 71 22 39 d1 28 e4 3d 8d a1 37 3f
       0.07747864 0.00015491685 0.111405976 0.7173088
0001b0 04 4a 8f 3f d2 4c 98 3d b5 30 c9 3e 96 47 65 3f
       1.1194463 0.07436527 0.39294973 0.89562356
0001c0 c5 1c 2e 3f 19 bd a6 3c 7d bf e2 3e 16 24 61 3f
       0.6801265 0.02035384 0.4428672 0.8794569
0001d0 8c 8d ab 3d cb 60 8f 3e c6 75 8e 3f af 32 90 3c
       0.08376607 0.28003535 1.1129692 0.017602293
0001e0 cb a8 ad 3d eb 09 03 3e 57 85 8d 3e fd 5a 13 3f
       0.0847946 0.12796752 0.27640793 0.5756071
0001f0 e6 b7 ec 3e 1a 5c 85 3e b4 a5 70 3f a0 27 73 3e
       0.46234053 0.2604683 0.9400284 0.23745584
000200 77 58 10 3f 66 9a 07 3e c3 2e cd 3f 09 7b 66 3f
       0.56384987 0.13242492 1.6029896 0.90031487
000210 6b fc 98 3f e1 ff e3 3e 8c de 65 3d cc 5e e6 3e
       1.1952032 0.44531158 0.05612044 0.449942
000220 4d 2a d1 3e 58 0c c9 3e 0f 47 52 3d e3 1e 5f 3f
       0.40852585 0.3926723 0.051337298 0.87156504
000230 a7 80 7a 3e 76 02 7c 3e 27 a8 7f 3d da b6 11 3f
       0.2446314 0.24610314 0.062416222 0.56919634
000240 e7 5f ef 3e 90 62 d1 3e 52 bc 47 3e 7a 3f b5 3e
       0.46752855 0.4089551 0.19505432 0.3539999
000250 55 0d ba 3e 02 01 2f 3f 54 36 9f 3e e7 3a 58 3f
       0.36338297 0.6836091 0.31096137 0.8446488
000260 61 d7 07 3f ef 94 ac 3e f7 07 2f 3f 14 93 29 3d
       0.5306302 0.33707377 0.6837153 0.04140003
000270 ed f6 26 3f 1a 22 c9 3d e7 27 56 3e 92 df 50 3f
       0.6522053 0.098209575 0.20913659 0.8159114
000280 1a 6c 15 3e 9b 40 76 3f a7 2c 88 3f fb df 54 3f
       0.14592019 0.9619233 1.0638627 0.8315427
000290 90 b2 84 3d 8e da 04 3e f2 4a 43 3e e6 0c cd 3d
       0.064793706 0.12973997 0.19071558 0.10012226
0002a0 f5 5f 5c 3e e5 b6 a5 3f 00 e2 98 3d b5 5e 85 3e
       0.2152098 1.294644 0.07464981 0.26048818
0002b0 65 32 67 3e df 14 79 3e 74 bb aa 3f b9 9e 53 3f
       0.22577818 0.24324368 1.3338456 0.82664067
0002c0 27 51 10 3f 60 8b dc 3e 06 f9 74 3f 99 44 b3 3d
       0.5637383 0.43075085 0.9569248 0.08753318
0002d0 de df 44 3f 44 2c c2 3e 20 61 66 3f 74 24 81 3d
       0.76904094 0.37924397 0.8999195 0.06305781
0002e0 73 18 cb 3e eb e9 00 3f 2b 11 ca 3e 67 ed 4c 3e
       0.3966709 0.5035693 0.39466223 0.20012437
0002f0 99 61 00 3f 95 1a 67 3d 96 e5 c2 3d a4 65 dd 3e
       0.5014892 0.056421835 0.09516446 0.43241608
000300 38 fd ab 3f 88 8e 92 3c 71 46 44 3f c9 65 ea 3f
       1.3436651 0.01789023 0.76669985 1.8312312
000310 fc ca e0 3e 89 99 60 3f c5 e4 31 3e 5b d3 02 3e
       0.43904865 0.87734276 0.17372425 0.12775938
000320 1b 61 a7 3f 3a d4 be 3d bd 0a 18 3f b9 03 a0 3f
       1.3076509 0.09317823 0.59391385 1.2501136
000330 cc 89 13 3f a6 d7 1a 3f 08 35 cb 3e 29 71 e7 3e
       0.57632136 0.60485303 0.39688897 0.45203522
000340 9f 00 8f 3f 7c b3 4e 3f 7d 0e 43 3e 3c 4d 36 3f
       1.1172065 0.8074262 0.19048496 0.712116
000350 c7 ca 5a 3f 7a b4 84 3f 6f 6f fb 3e d4 f4 1e 3f
       0.85465664 1.0367577 0.49108455 0.6209233
000360 50 bf a9 3f e8 43 4d 3f fb bf bb 3f b1 14 d1 3e
       1.3261509 0.8018174 1.4667963 0.408361
000370 d0 39 cb 3d 79 a9 84 3e bf ad 02 3e 85 a9 a0 3d
       0.09923136 0.25910547 0.12761591 0.07844833
000380 ce ae e9 3e 23 a8 61 3e 2e 51 9c 3f 02 30 5a 3f
       0.45641178 0.22036795 1.2212274 0.85229504
000390 1f 9b 00 3e a1 bd 2c 3e 38 2b bc 3d ae 90 20 3d
       0.12559174 0.16869213 0.09187931 0.039200477
0003a0 46 c6 8a 3f 00 2e c3 3f 33 7e 5f 3e f4 e1 6b 3e
       1.0841758 1.5248413 0.21825485 0.23035413
0003b0 fd e5 df 3e 72 3f 05 3f 6c af a7 3e 15 3e f1 3e
       0.43730155 0.52049935 0.32751024 0.47117677
